…
sync_bn: false
tau: 1
teacher: vit_7_4_32_c100
teacher_checkpoint: /home/xts/code/njeans/MyViT/pretrained/vit_c100.pth.tar
torchscript: false
train_interpolation: random
train_split: train
tta: 0
use_kd: true
use_multi_epochs_loader: false
val_split: validation
validation_batch_size_multiplier: 1
vflip: 0.0
warmup_epochs: 10
warmup_lr: 1.0e-05
weight_decay: 0.06
workers: 4

2024-04-17 16:20:15,200 - train - INFO - Training with a single process on 1 GPUs.
2024-04-17 16:20:19,022 - train - INFO - ViTLite(
  (tokenizer): Tokenizer(
    (conv_layers): Sequential(
      (0): Sequential(
        (0): Conv2d(3, 256, kernel_size=(4, 4), stride=(4, 4))
        (1): Identity()
        (2): Identity()
      )
    )
    (flattener): Flatten(start_dim=2, end_dim=3)
  )
  (classifier): TransformerClassifier(
    (dropout): Dropout(p=0.0, inplace=False)
    (blocks): ModuleList(
      (0): TransformerEncoderLayer(
        (pre_norm): LayerNorm((256,), eps=1e-05, elementwise_affine=True)
        (self_attn): Attention(
          (qkv): Linear(in_features=256, out_features=768, bias=False)
          (attn_drop): Dropout(p=0.1, inplace=False)
          (proj): Linear(in_features=256, out_features=256, bias=True)
          (proj_drop): Dropout(p=0.0, inplace=False)
        )
        (linear1): Linear(in_features=256, out_features=512, bias=True)
        (dropout1): Dropout(p=0.0, inplace=False)
        (norm1): LayerNorm((256,), eps=1e-05, elementwise_affine=True)
        (linear2): Linear(in_features=512, out_features=256, bias=True)
        (dropout2): Dropout(p=0.0, inplace=False)
        (drop_path): Identity()
      )
      (1-6): 6 x TransformerEncoderLayer(
        (pre_norm): LayerNorm((256,), eps=1e-05, elementwise_affine=True)
        (self_attn): Attention(
          (qkv): Linear(in_features=256, out_features=768, bias=False)
          (attn_drop): Dropout(p=0.1, inplace=False)
          (proj): Linear(in_features=256, out_features=256, bias=True)
          (proj_drop): Dropout(p=0.0, inplace=False)
        )
        (linear1): Linear(in_features=256, out_features=512, bias=True)
        (dropout1): Dropout(p=0.0, inplace=False)
        (norm1): LayerNorm((256,), eps=1e-05, elementwise_affine=True)
        (linear2): Linear(in_features=512, out_features=256, bias=True)
        (dropout2): Dropout(p=0.0, inplace=False)
        (drop_path): DropPath()
      )
    )
    (norm): LayerNorm((256,), eps=1e-05, elementwise_affine=True)
    (fc): Linear(in_features=256, out_features=100, bias=True)
  )
)
2024-04-17 16:20:25,425 - train - INFO - Model vit_7_4_32_c100 created, param count:3740203
2024-04-17 16:20:25,444 - train - INFO - Using native Torch AMP. Training in mixed precision.
2024-04-17 16:20:25,445 - train - INFO - Scheduled epochs: 310
2024-04-17 16:20:27,173 - train - INFO - Verifying teacher model
2024-04-17 16:20:29,231 - train - INFO - Test: [   0/78]  Time: 2.057 (2.057)  Loss:  0.9883 (0.9883)  Acc@1: 78.1250 (78.1250)  Acc@5: 92.9688 (92.9688)
…
