…
- 0.274
sync_bn: false
tau: 1.0
teacher: vit_9_12_64
teacher_checkpoint: /home/xts/code/njeans/MyViT/pretrained/vit_tiny.pth.tar
torchscript: false
train_interpolation: random
train_split: train
tta: 0
use_kd: true
use_multi_epochs_loader: false
val_split: valid
validation_batch_size_multiplier: 1
vflip: 0.0
warmup_epochs: 10
warmup_lr: 1.0e-06
weight_decay: 0.05
workers: 4

2024-04-24 09:35:39,490 - train - INFO - Training with a single process on 1 GPUs.
2024-04-24 09:35:41,615 - train - INFO - ViTLite(
  (tokenizer): Tokenizer(
    (conv_layers): Sequential(
      (0): Sequential(
        (0): Conv2d(3, 192, kernel_size=(4, 4), stride=(4, 4))
        (1): Identity()
        (2): Identity()
      )
    )
    (flattener): Flatten(start_dim=2, end_dim=3)
  )
  (classifier): TransformerClassifier(
    (dropout): Dropout(p=0.0, inplace=False)
    (blocks): ModuleList(
      (0): TransformerEncoderLayer(
        (pre_norm): LayerNorm((192,), eps=1e-05, elementwise_affine=True)
        (self_attn): Attention(
          (qkv): Linear(in_features=192, out_features=576, bias=False)
          (attn_drop): Dropout(p=0.1, inplace=False)
          (proj): Linear(in_features=192, out_features=192, bias=True)
          (proj_drop): Dropout(p=0.0, inplace=False)
        )
        (linear1): Linear(in_features=192, out_features=384, bias=True)
        (dropout1): Dropout(p=0.0, inplace=False)
        (norm1): LayerNorm((192,), eps=1e-05, elementwise_affine=True)
        (linear2): Linear(in_features=384, out_features=192, bias=True)
        (dropout2): Dropout(p=0.0, inplace=False)
        (drop_path): Identity()
      )
      (1-8): 8 x TransformerEncoderLayer(
        (pre_norm): LayerNorm((192,), eps=1e-05, elementwise_affine=True)
        (self_attn): Attention(
          (qkv): Linear(in_features=192, out_features=576, bias=False)
          (attn_drop): Dropout(p=0.1, inplace=False)
          (proj): Linear(in_features=192, out_features=192, bias=True)
          (proj_drop): Dropout(p=0.0, inplace=False)
        )
        (linear1): Linear(in_features=192, out_features=384, bias=True)
        (dropout1): Dropout(p=0.0, inplace=False)
        (norm1): LayerNorm((192,), eps=1e-05, elementwise_affine=True)
        (linear2): Linear(in_features=384, out_features=192, bias=True)
        (dropout2): Dropout(p=0.0, inplace=False)
        (drop_path): DropPath()
      )
    )
    (norm): LayerNorm((192,), eps=1e-05, elementwise_affine=True)
    (fc): Linear(in_features=192, out_features=200, bias=True)
  )
)
2024-04-24 09:35:48,699 - train - INFO - Model vit_9_12_64 created, param count:2766216
2024-04-24 09:35:48,727 - train - INFO - Using native Torch AMP. Training in mixed precision.
2024-04-24 09:35:48,727 - train - INFO - Scheduled epochs: 310
2024-04-24 09:35:48,951 - train - INFO - Verifying teacher model
2024-04-24 09:35:49,508 - train - INFO - Test: [   0/78]  Time: 0.557 (0.557)  Loss:  0.9009 (0.9009)  Acc@1: 82.0312 (82.0312)  Acc@5: 94.5312 (94.5312)
…
